…
, box=7.5, cls=0.5, dfl=1.5, pose=12.0, kobj=1.0, label_smoothing=0.0, nbs=64, hsv_h=0.015, hsv_s=0.7, hsv_v=0.4, degrees=0.0, translate=0.1, scale=0.5, shear=0.0, perspective=0.0, flipud=0.0, fliplr=0.5, mosaic=1.0, mixup=0.0, copy_paste=0.0, auto_augment=randaugment, erasing=0.4, crop_fraction=1.0, cfg=None, tracker=botsort.yaml, save_dir=/home/mamingrui/sod/ultralytics-main/out_dirs/vis_yolov8s_baba_4head_mid4_2/20250801_222446

                   from  n    params  module                                       arguments                     
  0                  -1  1       928  ultralytics.nn.modules.conv.Conv             [3, 32, 3, 2]                 
  1                  -1  1     18560  ultralytics.nn.modules.conv.Conv             [32, 64, 3, 2]                
  2                  -1  1     29056  ultralytics.nn.modules.block.C2f             [64, 64, 1, True]             
  3                  -1  1     73984  ultralytics.nn.modules.conv.Conv             [64, 128, 3, 2]               
  4                  -1  2    197632  ultralytics.nn.modules.block.C2f             [128, 128, 2, True]           
  5                  -1  1    295424  ultralytics.nn.modules.conv.Conv             [128, 256, 3, 2]              
  6                  -1  2    788480  ultralytics.nn.modules.block.C2f             [256, 256, 2, True]           
  7                  -1  1   1180672  ultralytics.nn.modules.conv.Conv             [256, 512, 3, 2]              
  8                  -1  1   1838080  ultralytics.nn.modules.block.C2f             [512, 512, 1, True]           
  9                  -1  1    656896  ultralytics.nn.modules.block.SPPF            [512, 512, 5]                 
 10                   4  1     16640  ultralytics.nn.modules.conv.Conv             [128, 128, 1, 1]              
 11                   6  1     33024  ultralytics.nn.modules.conv.Conv             [256, 128, 1, 1]              
 12                   9  1     65792  ultralytics.nn.modules.conv.Conv             [512, 128, 1, 1]              
 13                  -1  1         0  torch.nn.modules.upsampling.Upsample         [None, 2, 'nearest']          
 14            [-1, 11]  1         0  ultralytics.nn.modules.conv.Concat           [1]                           
 15                  -1  1    131840  ultralytics.nn.modules.block.C2f             [256, 128, 1]                 
 16                  -1  1         0  torch.nn.modules.upsampling.Upsample         [None, 2, 'nearest']          
 17            [-1, 10]  1         0  ultralytics.nn.modules.conv.Concat           [1]                           
 18                  -1  1    131840  ultralytics.nn.modules.block.C2f             [256, 128, 1]                 
 19                  -1  1    147712  ultralytics.nn.modules.conv.Conv             [128, 128, 3, 2]              
 20            [-1, 15]  1         0  ultralytics.nn.modules.conv.Concat           [1]                           
 21                  -1  1    131840  ultralytics.nn.modules.block.C2f             [256, 128, 1]                 
 22                  -1  1    147712  ultralytics.nn.modules.conv.Conv             [128, 128, 3, 2]              
 23            [-1, 12]  1         0  ultralytics.nn.modules.conv.Concat           [1]                           
 24                  -1  1    131840  ultralytics.nn.modules.block.C2f             [256, 128, 1]                 
 25     [2, 18, 15, 24]  1    120032  ultralytics.nn.modules.emfnet.MHmy_mid4_2    [[64, 128, 128, 128], 64]     
 26    [-1, 18, 21, 24]  1    832312  ultralytics.nn.modules.head.Detect           [10, [64, 128, 128, 128]]     
vis_YOLOv8s_baba_4head_mid4_2 summary: 274 layers, 6970296 parameters, 6970280 gradients, 28.5 GFLOPs
vis_YOLOv8s_baba_4head_mid4_2 summary: 274 layers, 6970296 parameters, 6970280 gradients, 28.5 GFLOPs

[34m[1mTensorBoard: [0mStart with 'tensorboard --logdir /home/mamingrui/sod/ultralytics-main/out_dirs/vis_yolov8s_baba_4head_mid4_2/20250801_222446', view at http://localhost:6006/
…
